docs/tutorials/script/DolphinDB_Tensor_Libtorch_tutorial/scripted_model.pth (torch, 65593 bytes, 9 tensors)

weight_ih_l0 f4 [128, 1]
0	0x3e908147	0.2822363
1	0xbd847451	-0.06467498
2	0xbf237a31	-0.63858324
3	0x3e1c5087	0.15265094
4	0xbd90545e	-0.07047342
5	0x3f417d87	0.75582165
6	0xbde563bf	-0.11200666
7	0xbd6c8f30	-0.05775374
8	0xbb66a754	-0.003519495
9	0xbe2afcf9	-0.16698064
10	0x3e912808	0.28350854
11	0xbdc58d95	-0.09646145
12	0x3efb3528	0.49063993
13	0xbe5297d1	-0.20565726
14	0x3eb8f779	0.36126307
15	0x3f106351	0.56401545
16	0x3e0bbe4c	0.13646811
17	0xbd2c8b02	-0.042124756
18	0x3e2ed45a	0.17073193
19	0xbe58da6a	-0.21177068
20	0x3e7f4154	0.24927264
21	0x3d6120a4	0.05496277
22	0x3df4c5ae	0.11951767
23	0xbd1327b2	-0.03592653
24	0x3e93d95a	0.28876764
25	0xbe4a8751	-0.19778182
26	0x3f1eaeb3	0.6198532
27	0x3e96ac8a	0.29428512
28	0x3e9f6214	0.31129515
29	0xba86f534	-0.0010296465
30	0x3ee6d24b	0.45082316
31	0xbe884e0e	-0.2662205
32	0xbf02feaf	-0.51169866
33	0xbf2fcacb	-0.6866881
34	0xbf7031ba	-0.93825877
35	0xbe0d22fd	-0.13782878
36	0xbe84b082	-0.25915915
37	0x3f8939c7	1.0720757
38	0x3f4df03e	0.80444705
39	0xbd4d3c53	-0.050106358
40	0xbecbbf64	-0.39794457
41	0x3ec1b05e	0.3782987
42	0x3f32f19a	0.69899905
43	0xbe6f76fb	-0.23385231
44	0xbe894a92	-0.26814705
45	0xbf6ca046	-0.9243206
46	0xbe263568	-0.1623131
47	0x3f00e0a2	0.5034276
48	0x3ec8fef7	0.39257023
49	0xbf0db842	-0.5535928
50	0xbe5ee103	-0.21765523
51	0xbece7aa2	-0.40327936
52	0xbf013798	-0.50475454
53	0x3f4e9e91	0.80710703
54	0x3e84ff4a	0.2597602
55	0x3dc59907	0.09648328
56	0xbf2b85f3	-0.67001265
57	0x3e015311	0.12629344
58	0x3f0a5c42	0.54047024
59	0x3ea9254a	0.33036262
60	0x3ecfd481	0.40591815
61	0x3f2f07c1	0.68371207
62	0xbeadcd55	-0.33945718
63	0xbe4537c5	-0.19259556
64	0xbf3b9ff0	-0.7329092
65	0xbee792a9	-0.4522908
66	0xbeae2855	-0.34015146
67	0xbf30b9ce	-0.69033515
68	0x3e0d3954	0.137914
69	0xbd9e5061	-0.07730175
70	0xbf3dd0fa	-0.74147
71	0x3f080330	0.53129864
72	0xbf4cb16f	-0.7995824
73	0xbf2fe465	-0.6870788
74	0xbe53e5dd	-0.20693155
75	0x3ed5a24f	0.41725394
76	0xbf0a85d0	-0.5411043
77	0x3ed013c8	0.40640092
78	0xbf14a3c0	-0.5806236
79	0x3f100500	0.5625763
80	0xbf1b9ea9	-0.6078897
81	0x3ebe4170	0.371593
82	0xbf265dea	-0.6498705
83	0x3d424477	0.047428574
84	0xbef636c0	-0.48088646
85	0x3f9219e0	1.1414146
86	0x3e21db9a	0.15806428
87	0x3ea50f31	0.32238153
88	0xbf53c215	-0.8271802
89	0x3e5ee4b9	0.21766938
90	0x3ea37131	0.31922296
91	0x3ef17059	0.47156027
92	0xbde97f35	-0.11401216
93	0x3d141423	0.036152016
94	0xbf6133cd	-0.87969667
95	0x3e962153	0.293223
96	0xbdb203d4	-0.086921364
97	0xbd96ce47	-0.07363563
98	0xbeadea9a	-0.3396805
99	0x3e247caf	0.16063188
100	0x3dcb533d	0.09927986
101	0x3f5ff03e	0.87475955
102	0x3ec445ec	0.38334596
103	0xbf2516e9	-0.64488083
104	0xbe86d4af	-0.2633414
105	0x3ef382ed	0.47560826
106	0x3f2e2d2d	0.6803768
107	0xbe23fa17	-0.1601337
108	0x3e812461	0.25223067
109	0x3c303cb9	0.010756665
110	0x3d909a98	0.070607364
111	0x3f5dec7b	0.86688966
112	0x3edf5c64	0.43625176
113	0xbede2ce5	-0.43393627
114	0x3d9b85e1	0.07593895
115	0xbee4f7de	-0.44720358
116	0xbdf21768	-0.11820871
117	0x3ecb9922	0.3976527
118	0xbdfbeaed	-0.12300668
119	0xbe0b730e	-0.13618109
120	0xbd978c43	-0.073998
121	0xbe95a4fe	-0.29227442
122	0x3f65f461	0.8982602
123	0x3f1290b6	0.5725206
124	0xbc7e4c2c	-0.0155210905
125	0xbe717195	-0.23578484
126	0x3e9c6f1a	0.30553514
127	0xbe0e6987	-0.13907443

weight_hh_l0 f4 [128, 32]
0	0x3e597a8e	0.21238157
1	0x3e861cc4	0.2619382
2	0xbda0dae1	-0.07854248
3	0x3e2e5c1a	0.17027321
4	0xbe14114c	-0.14459723
5	0x3e5c6d13	0.21525984
6	0x3f801828	1.0007372
7	0xbe811927	-0.25214502
8	0x3f1c8e78	0.6115489
9	0x3f2f4334	0.6846192
10	0x3dacc0a8	0.08435184
11	0xbf03f2db	-0.51542443
12	0x3d781dff	0.06057548
13	0xbed1fdb8	-0.41013885
14	0x3e2c26b5	0.1681164
15	0x3d9ff438	0.07810253
16	0x3eae7de4	0.34080422
17	0xbe4bf9bb	-0.19919483
18	0x3f36f830	0.71472454
19	0xbe329715	-0.17440446
20	0x3e9cf002	0.3065186
21	0xbf57dfbb	-0.8432576
22	0xbd9e4b58	-0.077292144
23	0xbd10dbd6	-0.035365902
24	0x3e7133e4	0.23554951
25	0xbe898e0f	-0.26866195
26	0x3d61a8dc	0.055092677
27	0xbe8d094a	-0.2754615
28	0xbe34b1c5	-0.17645939
29	0x3e3f985c	0.18710464
30	0x39c5e6bf	0.00037746687
31	0xbeebddce	-0.4606766
32	0x3ee3a6f7	0.44463322
33	0xbb96ef96	-0.0046061976
34	0xbe45050b	-0.19240205
35	0xbe38bb19	-0.18040122
36	0xbe8a6d34	-0.2703644
37	0x3d7db767	0.061942484
38	0x3f3aaa4d	0.7291611
39	0xbea285bd	-0.3174266
40	0x3e6b3dba	0.22972766
41	0x3ed0bfed	0.40771428
42	0xbda1d2ea	-0.07901557
43	0xbd99fe2a	-0.07519181
44	0x3e7bd5a6	0.24593219
45	0xbe25473c	-0.16140455
46	0xbdbd0b10	-0.09230626
47	0x3de5d308	0.11221892
48	0x3ebfb9aa	0.37446338
49	0xbd62015b	-0.055177074
50	0x3f12448d	0.5713585
51	0x3eb74f6a	0.35802776
52	0x3e7a0308	0.24415219
53	0xbe344362	-0.1760383
54	0xbf225ec5	-0.63425857
55	0xbea670ec	-0.32508028
56	0x3eb0df0f	0.3454518
57	0xbf0c8007	-0.54882854
58	0xbd5d1199	-0.05397186
59	0xbecbd4c7	-0.39810774
60	0x3e4ac264	0.19800717
61	0xbc828995	-0.015934745
62	0xbe880c40	-0.26571846
63	0xbf08960f	-0.5335397
64	0xbe7db0f6	-0.24774536
65	0x3e763791	0.24044634
66	0x3dc47153	0.095919274
67	0x3d17f98a	0.037103213
68	0x3e649d3c	0.22325605
69	0x3ead4347	0.3384039
70	0xbe45497b	-0.19266312
71	0x3f42dea7	0.7612099
72	0xbe5cb8a4	-0.2155481
73	0xbe618465	-0.22023161
74	0x3d3ab4b6	0.045582496
75	0x3ea4bfad	0.32177487
76	0xbda3d383	-0.07999327
77	0x3d962d78	0.07332891
78	0xbe917ea5	-0.28416935
79	0x3c829257	0.01593892
80	0xbe02309b	-0.12713854
81	0x3e0b2acf	0.13590549
82	0xbddec91d	-0.10878203
83	0xbf5310ba	-0.824474
84	0xbe8c868e	-0.27446407
85	0xbd13fb86	-0.036128543
86	0x3dc05e56	0.09392993
87	0x3e9978cb	0.2997497
88	0xbe00fb50	-0.12595868
89	0x3d32e399	0.043674085
90	0x3c82b895	0.015957156
91	0xbd3010c1	-0.042984728
92	0x3c4336d6	0.011914929
93	0xbe9c4798	-0.30523372
94	0xbed38346	-0.4131109
95	0x3e900770	0.28130674
96	0xbe1d4523	-0.15358405
97	0x3e23bedc	0.15990776
98	0xbe83314a	-0.25623542
99	0xbe226c8e	-0.15861723
100	0xbf208dc6	-0.6271633
101	0x3ea41ac0	0.3205166
102	0x3da4b1cd	0.08041725
103	0xbe68899e	-0.22708747
104	0x3f0e6820	0.5562763
105	0x3ef91e9e	0.48656172
106	0xbe68f597	-0.22749935
107	0xbf16cc85	-0.5890582
108	0x3e33baff	0.17551802
109	0xbeb4f8c3	-0.3534604
110	0xbe315d75	-0.17320807
111	0x3e1931f0	0.14960456
112	0xbe00cedf	-0.12578915
113	0xbe5f328c	-0.21796626
114	0x3f07f2cb	0.5310485
115	0x3e1ff75d	0.15621705
116	0x3d9b0192	0.07568659
117	0x3e4d7eba	0.20067874
118	0xbeb3147b	-0.34976563
119	0x3e024b03	0.12723927
120	0x3d453cc6	0.04815366
121	0xbef92b94	-0.4866606
122	0x3ea5723e	0.32313722
123	0xbe0eb0db	-0.13934653
124	0xbea1e772	-0.3162189
125	0x3ec9b10d	0.39392892
126	0xbe3115b7	-0.1729344
127	0xbefa466a	-0.48881847
128	0x3da7e958	0.08198804
129	0xbe4d77a4	-0.2006517
130	0x3ecfa261	0.40553573
131	0x3d805da4	0.062678605
132	0x3e5ea424	0.21742302
133	0xbe05dfb1	-0.13073613
134	0xbd9eecd9	-0.07760019
135	0xbde95f57	-0.11395138
136	0x3e5ac327	0.21363507
137	0xbda3ba59	-0.07994527
138	0xbe87a266	-0.26491088
139	0xbd5e142c	-0.054218456
140	0xbcf05252	-0.029336128
141	0xbd35ffb3	-0.044433307
142	0xbe8c39f3	-0.27387962
143	0x3e7d5b24	0.24741799
144	0xbe30d275	-0.17267783
145	0x3d8e0da7	0.06936198
146	0xbe18934a	-0.14899936
147	0x3e6f310c	0.23358554
148	0x3d8ebdf3	0.06969824
149	0x3e9a8f47	0.30187437
150	0x3e34f89e	0.17672965
151	0xbdfa4ba8	-0.122214615
152	0xbe85a7aa	-0.2610448
153	0x3de332ab	0.110936485
154	0x3e41ba6e	0.18918774
155	0x3dfb88f9	0.12281985
156	0xbe8ca689	-0.27470806
157	0x3e8d1b4a	0.27559882
158	0xbe48f72e	-0.19625542
159	0xbe16dd07	-0.14732753
160	0xbdbfeb37	-0.093710355
161	0x3e4e2e85	0.20134933
162	0xbdf922da	-0.121648505
163	0xbe871072	-0.26379734
164	0x3e755160	0.23956823
165	0xbeb6cfaf	-0.35705325
166	0xbc9bac47	-0.019003047
167	0xbe8b555e	-0.27213567
168	0xbdbb7a81	-0.09154225
169	0xbcb27ee5	-0.021789024
170	0xbdb626a5	-0.088940896
171	0x3ed5c163	0.41749105
172	0xbe969869	-0.29413155
173	0x3e71dc2c	0.23619145
174	0x3e7ab5bb	0.24483387
175	0x3e3295ba	0.17439929
176	0x3d2e6663	0.042578112
177	0x3f2488f7	0.6427149
178	0x3e6d5321	0.23176242
179	0xbe674976	-0.22586617
180	0xbe6ef711	-0.23336436
181	0x3dd9f7aa	0.10642941
182	0x3e8278d1	0.254828
183	0x3f06c9ed	0.52651864
184	0xbb810899	-0.0039377925
185	0x3eaf14fc	0.34195697
186	0x3f4c529d	0.7981356
187	0x3d488453	0.04895432
188	0xbe898cc7	-0.26865217
189	0x3ed608a5	0.4180347
190	0x3ecace19	0.39610365
191	0x3e824503	0.25443277
192	0xbece247a	-0.40262204
193	0xbdba55d2	-0.090984
194	0xbe349859	-0.17636241
195	0xbe55006e	-0.20800945
196	0xbe8b4dc2	-0.27207762
197	0x3e709c09	0.23497023
198	0xbf357c30	-0.7089262
199	0x3e2b1b21	0.16709568
200	0xbe2e0c06	-0.16996774
201	0xbe6df801	-0.23239137
202	0xbe4a8f63	-0.1978126
203	0xbe442b3d	-0.19157119
204	0xbdae54d0	-0.085122705
205	0x3d952e69	0.07284243
206	0x3cc7d320	0.024392664
207	0x3e230efa	0.15923682
208	0xbf0e5fcb	-0.5561492
209	0xbd9d1024	-0.07669094
210	0xbe89a6a0	-0.26884937
211	0x3e53b74c	0.20675391
212	0x3ec31cff	0.3810806
213	0x3f0c9799	0.5491882
214	0xbdd94ea4	-0.10610703
215	0xbe533129	-0.20624222
216	0xbf4ed8bb	-0.80799454
217	0xbe338659	-0.17531718
218	0xbe175f34	-0.14782411
219	0x3db7afd3	0.08969083
220	0xbe782c13	-0.24235563
221	0x3e73ee8d	0.23821469
222	0xbeffe9ed	-0.4998316
223	0xbed61e8c	-0.4182018
224	0xbe7f3086	-0.24920854
225	0xbea3d8ff	-0.32001492
226	0x3e68f862	0.22751
227	0xbd9596ca	-0.07304151
228	0x3e822724	0.25420487
229	0xbec5c1cf	-0.38624427
230	0xbec0b112	-0.37635094
231	0x3e9c6f28	0.30553555
232	0xbef28d0f	-0.47373244
233	0xbe9cf972	-0.30659062
234	0xbea92f95	-0.33044115
235	0x3e81a09e	0.25317854
236	0x3e9ee746	0.31035823
237	0xbe82e082	-0.2556191
238	0xbeb0edae	-0.34556335
239	0x3c61b012	0.013774889
240	0xbe88dede	-0.26732534
241	0xbe0a3b4e	-0.13499185
242	0xbe8793de	-0.2648
243	0x3ed8e226	0.42360038
244	0x3d44ddd0	0.0480631
245	0x3eb5c53e	0.35502046
246	0x3ea514a9	0.32242325
247	0xbdfb565c	-0.12272331
248	0xbf0a0bec	-0.5392444
249	0x3e6bf7f5	0.23043807
250	0x3d73a246	0.059480928
251	0x3e78588e	0.24252531
252	0xbea35216	-0.31898564
253	0x3edb83e0	0.4287405
254	0x3d1c49e1	0.038156394
255	0x3ed994d5	0.42496362

bias_ih_l0 f4 [128]
0	0x3e60c220	0.21949053
1	0xbd65fe45	-0.056150693
2	0xbe250362	-0.16114572
3	0xbda54164	-0.08069113
4	0xbd9b2d26	-0.07576971
5	0x3e403492	0.18770054
6	0x3ea57b7b	0.3232077
7	0x3d4e42a2	0.050356515
8	0x3da12030	0.078674674
9	0xbc54a242	-0.012978138
10	0xbdef599f	-0.11687016
11	0x3dfb6a34	0.12276116
12	0x3d64c0e0	0.055848002
13	0xbd9456ed	-0.07243142
14	0xbe0548ca	-0.13016048
15	0xbe5f9e32	-0.2183769
16	0xbd208186	-0.039186023
17	0xbe2b8064	-0.16748196
18	0x3e131d49	0.1436664
19	0xbec0de30	-0.37669516
20	0xbd3545cd	-0.04425602
21	0x3dda95c9	0.106731005
22	0x3dfecf61	0.12441898
23	0xbe2a8576	-0.16652474
24	0x3e4c1f9f	0.19933937
25	0xbe41544c	-0.18879813
26	0x3e29c6eb	0.16579787
27	0xbe75510c	-0.23956698
28	0xbe9f8fe8	-0.3116448
29	0x3e630664	0.22170407
30	0x3d980548	0.07422882
31	0x3df10049	0.117676325
32	0xbdf25556	-0.11832683
33	0xbcb6377d	-0.022243256
34	0xbb9ba246	-0.004749569
35	0x3e418845	0.18899639
36	0xbe94a6e0	-0.29033566
37	0x3d919105	0.071077384
38	0x3dfead08	0.12435347
39	0xbd9f52b1	-0.07779444
40	0xbd884554	-0.06653848
41	0xbc13d478	-0.0090228245
42	0xbe3ccb76	-0.18436989
43	0x3ddce809	0.10786445
44	0x3c241e3b	0.010016973
45	0x3e130224	0.14356285
46	0x3d4287ee	0.047492914
47	0x3df9dfac	0.12200865
48	0xbdbabe2a	-0.09118302
49	0xbde9292b	-0.11384805
50	0x3e4cf334	0.2001465
51	0x3dbf855c	0.09351608
52	0x3db4c32c	0.088262886
53	0xbe97a945	-0.2962133
54	0xbd0974f1	-0.03355879
55	0x3dd70bc4	0.10500291
56	0x3ea263d0	0.31716776
57	0xbdcd2b03	-0.100179695
58	0x3eff2ec0	0.49840355
59	0xbdf3a58f	-0.11896812
60	0xbc4b2ddf	-0.012401073
61	0x3e6b189d	0.22958608
62	0x3e3d222e	0.1847007
63	0x3d4d8a0a	0.050180472
64	0xbcc37efc	-0.023864262
65	0xbd9ec59f	-0.07752537
66	0xbe595a91	-0.21225955
67	0x3dcc0a05	0.099628486
68	0x3d9ec79f	0.077529185
69	0x3e704f3f	0.2346773
70	0xbde667d6	-0.11250274
71	0xbb79c45b	-0.0038111422
72	0xbe077653	-0.13228731
73	0x3d9ae8da	0.07563944
74	0xbae0ef86	-0.0017161227
75	0x3d3af5c2	0.04564453
76	0xbdff5218	-0.1246683
77	0x3d8512c3	0.06497719
78	0x3d11e453	0.035618138
79	0x3cc89418	0.02448468
80	0xbdc7eb3d	-0.09761665
81	0xbd25eb1c	-0.04050742
82	0xbd9b329d	-0.07578013
83	0x3d678dc1	0.05653167
84	0xbcab783d	-0.020931358
85	0xbd121371	-0.035663072
86	0xbda445c2	-0.08021118
87	0x3c3ea32e	0.011635585
88	0xbbb747d0	-0.0055932775
89	0x3d9e7b9b	0.077384196
90	0x3ad6cf67	0.0016388715
91	0x3ddf6e0b	0.10909661
92	0x3e7531a9	0.23944725
93	0xbcc8d57d	-0.024515862
94	0x3e1fea96	0.15616831
95	0x3e3403f0	0.17579627
96	0x3dc8f27c	0.09811875
97	0xbd2626fb	-0.04056452
98	0xbd0aa069	-0.033844385
99	0x3e3baa23	0.18326621
100	0xbcd373dd	-0.025812084
101	0x3e1f0bd2	0.15531853
102	0x3e920226	0.28517264
103	0x3c2eb57a	0.010663385
104	0x3d3b0531	0.045659248
105	0x3dfd4d38	0.12368244
106	0xbba0fe9c	-0.0049131643
107	0xbdd6c622	-0.104870096
108	0x3e0d69a3	0.13809828
109	0xbc3b3090	-0.011425152
110	0xbcc1c31c	-0.023652606
111	0x3d9093c8	0.07059437
112	0xbe5e28d3	-0.2169526
113	0xbd5cf88e	-0.053947978
114	0x3e836611	0.25663808
115	0xbe80331f	-0.25039002
116	0xbc41cb6a	-0.011828283
117	0x3e9f5118	0.31116557
118	0xbe115f24	-0.1419645
119	0xbda7a2ef	-0.08185374
120	0x3dd5d814	0.10441604
121	0xbe9287c0	-0.28619194
122	0x3d98126f	0.07425391
123	0xbd660421	-0.05615628
124	0xbe9a627b	-0.3015326
125	0x3e8b5b20	0.2721796
126	0x3efe2e6e	0.49644798
127	0x3ba83d44	0.0051342566

bias_hh_l0 f4 [128]
0	0x3e210247	0.15723525
1	0xbe7ff901	-0.24997331
2	0xbe0eb9da	-0.13938084
3	0x3e21994f	0.15781139
4	0xbe6d7e40	-0.23192692
5	0x3d8b8556	0.06812541
6	0x3e7f6122	0.24939397
7	0xbdaf1ad8	-0.08550042
8	0x3e7101cb	0.2353584
9	0x3e444ac5	0.19169147
10	0xbd834555	-0.064097084
11	0x3e1f5a24	0.1556173
12	0xbd6b561f	-0.05745518
13	0x3bde9890	0.006793089
14	0xbe4e91d4	-0.20172817
15	0xbe184ae1	-0.14872314
16	0xbe4710c1	-0.19439985
17	0xbe01a06d	-0.12658854
18	0x3d169304	0.0367613
19	0xbe9e5269	-0.3092225
20	0x3cfbb251	0.030724676
21	0xbd0aa68b	-0.033850234
22	0x3d7034f7	0.05864426
23	0xbd98f37f	-0.07468318
24	0x3e17b660	0.14815664
25	0xbe4b3105	-0.19842918
26	0x3d41d750	0.04732448
27	0xbe035c08	-0.12828076
28	0xbea8cab0	-0.32967138
29	0x3e0070f5	0.1254309
30	0x3c31e626	0.010858094
31	0x3d6d2774	0.057898954
32	0xbbecd639	-0.007227686
33	0x3df1fb77	0.11815541
34	0xbddc3206	-0.10751729
35	0x3e42e8c5	0.19034107
36	0xbe204cae	-0.15654251
37	0xbde1336b	-0.10996135
38	0x3e16f170	0.14740539
39	0xbe53a01e	-0.20666549
40	0x3e15cae2	0.14628175
41	0x3dc001ba	0.09375329
42	0x3e14d00c	0.14532489
43	0x3cd4be40	0.025969625
44	0x3e24eb87	0.16105472
45	0xbca60e18	-0.020270392
46	0x3c0fb859	0.008771979
47	0xbda2713e	-0.079317555
48	0xbe131bad	-0.14366026
49	0x3d2de7c7	0.04245737
50	0x3e08b71c	0.133511
51	0xbb3414fa	-0.0027478323
52	0x3e6e70c8	0.2328521
53	0xbdf1b3ca	-0.1180187
54	0xbdc461db	-0.09588977
55	0xbcaa7a90	-0.020810395
56	0x3c069b07	0.008215672
57	0x3b791583	0.0038007207
58	0x3e9f9bc9	0.31173542
59	0x3c96d911	0.018414052
60	0x3d54930c	0.051898047
61	0x3d3341d1	0.04376394
62	0x3e9b0369	0.3027604
63	0x3d8de1a8	0.06927806
64	0xbdd3d340	-0.10343027
65	0x3db68bed	0.089134075
66	0x3d2a9428	0.0416452
67	0xbe03bc25	-0.1286474
68	0x3d089bc6	0.033351682
69	0xbdaa2a25	-0.0830882
70	0xbd987c8b	-0.0744563
71	0x3da939c2	0.082629696
72	0x3e11d74c	0.14242285
73	0xbdaa280c	-0.083084196
74	0x3dfe4102	0.12414743
75	0xbd15cd67	-0.03657284
76	0xbe03bf03	-0.12865834
77	0x3d7065c9	0.05869082
78	0x3d895241	0.06705142
79	0x3d0c3447	0.034229543
80	0xbd8e42d0	-0.06946337
81	0x3e244eb5	0.1604565
82	0xbc0eedd0	-0.008723691
83	0xbdd573b8	-0.10422462
84	0xbb8e8003	-0.0043487563
85	0xbc69efa5	-0.014278327
86	0x38e17e2a	0.00010752336
87	0x3d831557	0.064005546
88	0xbc6b54b0	-0.014363453
89	0xbc2ffc54	-0.010741312
90	0x3e07b783	0.13253598
91	0x3decb847	0.115585856
92	0xbdcc9d1b	-0.09990903
93	0xbe85641f	-0.2605295
94	0xbe2227a7	-0.15835439
95	0xbe1a184e	-0.15048334
96	0x3e8df586	0.27726382
97	0xbce4e5a6	-0.027941536
98	0xbdccd3d7	-0.10001343
99	0xbd80fb38	-0.06297916
100	0xbe32b083	-0.17450146
101	0x3c61632d	0.0137565555
102	0x3d722f44	0.059127107
103	0x3e149d20	0.14513063
104	0x3ddc89b3	0.107684515
105	0xbd9928bb	-0.07478472
106	0xbdfabd5b	-0.12243148
107	0xbe0e7be1	-0.13914444
108	0xbd782f13	-0.06059177
109	0xbc7ed742	-0.015554251
110	0x3d73f967	0.05956402
111	0x3d1d1f2a	0.0383598
112	0x3c187b0b	0.0093066795
113	0xbe3b0ace	-0.1826584
114	0x3b395826	0.00282813
115	0xbea3c515	-0.319863
116	0x3e58dbcd	0.21177597
117	0x3e7df254	0.24799472
118	0x3dc32e29	0.09530289
119	0xbe377097	-0.17914043
120	0x3d8e4a3c	0.06947753
121	0xbe8bc451	-0.27298215
122	0x3cdc95d7	0.026926918
123	0x3b8f4196	0.004371832
124	0xbea14ce2	-0.3150397
125	0x3eb77607	0.35832235
126	0x3e8558f7	0.26044437
127	0x3e26c2a4	0.16285187

weight_ih_l1 f4 [128, 32]
0	0x3e2c7554	0.16841632
1	0x3d913665	0.07090453
2	0xbce420c8	-0.027847663
3	0x3e9aa732	0.30205685
4	0xbeffc212	-0.4995275
5	0x3ec72c73	0.389011
6	0x3f0dbada	0.5536324
7	0xbd9cf201	-0.07663346
8	0x3f11991c	0.5687425
9	0x3f08bd84	0.5341418
10	0x3e8ebb5b	0.27877316
11	0xbf0234a9	-0.50861603
12	0x3d6db938	0.058037966
13	0xbea24638	-0.31694198
14	0x3e8d9bec	0.2765802
15	0xbdf552b4	-0.11978665
16	0x3efbca3c	0.4917773
17	0xbeef586f	-0.46747157
18	0x3f0ff634	0.5623505
19	0x3e76ed15	0.24113877
20	0x3ed82483	0.42215356
21	0xbefb9353	-0.49135837
22	0xbf3e490f	-0.7433023
23	0xbee2f202	-0.44325262
24	0x3e36d5c0	0.17854977
25	0xbf0e7e3b	-0.5566136
26	0xbe8849f1	-0.26618913
27	0xbee4976f	-0.44646785
28	0x3f0e12fa	0.55497706
29	0xbeffe573	-0.49979743
30	0xbda9ac17	-0.08284777
31	0xbebed5f6	-0.37272614
32	0x3f1f10ce	0.62135017
33	0xbe93a73e	-0.28838533
34	0x3e261dfe	0.16222379
35	0x3eae4007	0.34033224
36	0xbe9e743a	-0.3094805
37	0xbd3a8a12	-0.04554183
38	0xbe0e0b1f	-0.1387143
39	0xbcd73440	-0.026270032
40	0x3f18f78e	0.5975274
41	0x3e5fe74b	0.21865575
42	0x3e49d473	0.19709949
43	0xbea8d4e9	-0.32974938
44	0x3ef1c5d8	0.47221255
45	0xbed5024c	-0.41603315
46	0x3e82ecae	0.25571197
47	0xbe3a0ca6	-0.18168887
48	0x3ef7849b	0.48343357
49	0xbf280005	-0.6562503
50	0x3e87668d	0.26445428
51	0x3e99b905	0.3002397
52	0x3f5a2b66	0.8522247
53	0x3dd1041b	0.10205861
54	0x3e26417f	0.16235922
55	0xbf406801	-0.751587
56	0x3e98c611	0.29838613
57	0xbddeb9f4	-0.108753115
58	0xbf4d102d	-0.8010281
59	0xbf12bebe	-0.573223
60	0xbe080d80	-0.132864
61	0x3e151384	0.14558226
62	0x3c057f75	0.008148064
63	0xbe82a8dc	-0.25519454
64	0x3e4f423e	0.20240113
65	0x3e51ab94	0.20475608
66	0x3e4e2784	0.20132262
67	0x3e385e8c	0.18004817
68	0xbda4e320	-0.08051133
69	0x3e005b82	0.12534907
70	0x3f3e311e	0.74293697
71	0xbf17bab1	-0.59269243
72	0x3efd94ce	0.4952759
73	0x3e3dfc90	0.18553376
74	0xbf0f2ff1	-0.5593253
75	0xbda12563	-0.07868459
76	0x3d6dddd0	0.058072865
77	0xbea2fc2b	-0.31833014
78	0xbd2fc684	-0.04291393
79	0x3c02d0fd	0.007984397
80	0xbcf412eb	-0.029794177
81	0xbdc4eaa7	-0.09615069
82	0x3ef70efa	0.48253614
83	0x3d940cfe	0.072290406
84	0xbe812d6e	-0.25229973
85	0xbd32bf74	-0.043639615
86	0x3e931e9d	0.28734294
87	0x3e5492b2	0.20759085
88	0x3e6d13e6	0.23152122
89	0xbde76d56	-0.11300151
90	0x3d137266	0.03599777
91	0xbc978278	-0.01849483
92	0xbf8d7329	-1.1050769
93	0x3f23579a	0.63805544
94	0x3d0f4b4a	0.03498391
95	0xbe195872	-0.14975145
96	0x3ca6b28e	0.020348813
97	0x3e19253d	0.14955612
98	0xbdbcc675	-0.0921754
99	0x3de1b5c2	0.11020996
100	0x3d46b908	0.048516303
101	0xbe38b389	-0.18037237
102	0x3c198b7f	0.009371637
103	0xbd114914	-0.035470083
104	0x3e3b5a43	0.18296151
105	0xbc90b9ce	-0.017666724
106	0x3e8229d7	0.25422546
107	0x3e4f5408	0.20246899
108	0xbe26b19d	-0.16278692
109	0x3d3a0378	0.045413464
110	0xbe826403	-0.25466928
111	0xbe6d7c87	-0.23192035
112	0x3d3fb0f8	0.04679963
113	0x3e958f91	0.29211095
114	0x3d7432cd	0.05961876
115	0xbd77386d	-0.060356546
116	0xbe5ddb66	-0.21665725
117	0x3c49acb1	0.012309239
118	0x3e801633	0.25016937
119	0x3d5b2b9e	0.053508393
120	0xbcb16235	-0.021653274
121	0x3db64674	0.089001566
122	0x3e19931c	0.14997524
123	0xbde5042c	-0.11182436
124	0x3df8f04a	0.121552065
125	0xbe2fe009	-0.17175306
126	0xbe84e506	-0.2595598
127	0x3d2ce10a	0.0422068
128	0x3e090f8d	0.13384838
129	0xbeee4d65	-0.46543422
130	0x3e608bbc	0.21928304
131	0xbd5aa719	-0.053382013
132	0xbe8da60e	-0.27665752
133	0x3deb3827	0.114853196
134	0xbe073309	-0.13203062
135	0x3b28069c	0.0025638705
136	0x3e8696d8	0.2628696
137	0x3e2e0e79	0.16997708
138	0x3e36717b	0.17816727
139	0xbe0a2cc5	-0.1349364
140	0xbe8ae5f9	-0.2712858
141	0x3e32213f	0.17395495
142	0xbe4b7c5f	-0.19871663
143	0x3e2d5903	0.16928487
144	0xbbfffcb4	-0.007812107
145	0x3e8f7611	0.28019765
146	0x3d5b790e	0.053582244
147	0x3f0395ef	0.51400656
148	0x3d5170cb	0.05113296
149	0xbdd7bc04	-0.10533908
150	0x3de5375c	0.111921996
151	0x3da93597	0.082621746
152	0x3b158601	0.0022815468
153	0x3ca69d10	0.020338565
154	0x3e647a63	0.22312312
155	0xbe12caab	-0.14335124
156	0x3eaad201	0.33363345
157	0x3e45c4ce	0.19313356
158	0xbeb1a5e9	-0.34696892
159	0x3d6e7981	0.058221344
160	0x3e7d9d68	0.24767077
161	0x3eb31e49	0.34984043
162	0xbf14af00	-0.5807953
163	0x3c8e00c5	0.017334351
164	0xbeb65ba4	-0.3561679
165	0xbd66b90e	-0.056328826
166	0x3e8fc524	0.28080094
167	0xbec56e60	-0.38560772
168	0x3f259cbb	0.64692277
169	0x3f188d6c	0.5959079
170	0x3d6a5084	0.057205692
171	0xbe4cbd24	-0.19994026
172	0xbe54ef11	-0.20794322
173	0x3c900535	0.017580608
174	0x3f045f3f	0.51707834
175	0x3e1865b5	0.14882548
176	0x3d7e5074	0.062088445
177	0x3ec23b1b	0.3793572
178	0x3f3eadff	0.74484247
179	0xbe84b469	-0.25918892
180	0xbdc51c39	-0.09624524
181	0xbe48c295	-0.19605477
182	0xbe38d95d	-0.18051668
183	0x3e468430	0.19386363
184	0x3e1184ab	0.14210765
185	0xbecc1661	-0.39860824
186	0x3e329dee	0.17443058
187	0xbe78db06	-0.24302301
188	0x3d11aee0	0.035567164
189	0x3ce55158	0.02799289
190	0x3da97830	0.08274877
191	0xbe765018	-0.24053991
192	0xbceca584	-0.028887518
193	0x3e241eb9	0.16027345
194	0x3e17219d	0.14758916
195	0xbef79e40	-0.48362923
196	0x3e84751c	0.25870597
197	0xbda98dfc	-0.082790345
198	0x3dfd1cd6	0.12359016
199	0xbe84f307	-0.25966665
200	0xbe3d4a64	-0.18485409
201	0x3ee47b1d	0.44625178
202	0xbe4c4941	-0.19949819
203	0x3e210c6a	0.15727392
204	0xbf366d78	-0.71260786
205	0x3ed18043	0.40918168
206	0xbdc44fea	-0.09585555
207	0x3eae6451	0.3406091
208	0xbdb26287	-0.08710199
209	0x3f1b2fa4	0.6061957
210	0x3ecb57fd	0.39715567
211	0xbf1e7cf7	-0.6190943
212	0xbee6ec41	-0.45102122
213	0x3e2641fe	0.16236112
214	0x3ee017c5	0.43768135
215	0x3eac9cad	0.33713284
216	0xbdb09f10	-0.08624089
217	0x3e420467	0.18946992
218	0x3f2cdd1b	0.6752488
219	0x3eea7aa3	0.4579669
220	0xbe8f763d	-0.28019896
221	0x3efdbb8b	0.49557146
222	0xbe6a1398	-0.22859037
223	0xbd291849	-0.041282926
224	0xbe6ebd95	-0.23314507
225	0xbe4fce28	-0.20293486
226	0xbeba79f5	-0.3642117
227	0x3e1c2d2b	0.15251605
228	0x3c12fe75	0.0089718
229	0x3ec9cf4a	0.39415962
230	0x3e0358a3	0.12826781
231	0x3e58690e	0.21133825
232	0x3e50ebcf	0.20402454
233	0x3e0ad699	0.13558425
234	0x3ea19f3a	0.31566793
235	0xbc5f6190	-0.013634101
236	0xbcb387a2	-0.02191526
237	0x3e141cdd	0.14464135
238	0xbec1a943	-0.3782445
239	0x3deab80b	0.11460885
240	0xbd8594c8	-0.065225184
241	0x3e781c8f	0.24229644
242	0xbe35ecdb	-0.17766134
243	0xbe5e6ecf	-0.21721958
244	0xbe836592	-0.2566343
245	0xbebb5f7b	-0.36596283
246	0xbd13f2f8	-0.036120385
247	0x3e5342f0	0.20631003
248	0xbf1c8570	-0.6114111
249	0xbdfc25c1	-0.123118885
250	0xbcf9ccca	-0.030493159
251	0x3df4e9d1	0.119586594
252	0x3ed1e7ce	0.40997165
253	0xbeca4efa	-0.3951338
254	0xbf1e65ed	-0.61874276
255	0x3c999ed6	0.018752497

weight_hh_l1 f4 [128, 32]
0	0x3f0b6202	0.54446423
1	0xbe579d8f	-0.21056198
2	0xbed9e6f8	-0.42559028
3	0xbf6df69f	-0.9295444
4	0x3f2b9045	0.6701701
5	0x3e2f19fa	0.17099753
6	0x3f0cab2c	0.5494869
7	0x3e50bb08	0.20383847
8	0x3ee79b66	0.45235747
9	0xbdefb5d0	-0.117046
10	0x3f0db183	0.55348986
11	0xbeb68fd4	-0.35656607
12	0xbefb91ad	-0.4913458
13	0x3e27627e	0.16346166
14	0xbf46399e	-0.77431667
15	0x3e7950e2	0.2434726
16	0xbeb8fc89	-0.3613017
17	0x3e182b39	0.14860238
18	0x3e0a6d42	0.13518241
19	0xbdd3bc1d	-0.10338614
20	0x3ed8a3d7	0.423125
21	0x3e4d89dd	0.20072122
22	0xbe51ba88	-0.20481312
23	0xbecad535	-0.3961579
24	0xbe8ce92c	-0.27521646
25	0xbe815905	-0.2526323
26	0xbef4b11e	-0.4779138
27	0x3d7d6cf1	0.061871473
28	0xbf5300f6	-0.8242334
29	0xbec2690c	-0.3797077
30	0xbeddc3cd	-0.43313447
31	0xbe0022e2	-0.12513307
32	0x3eb26230	0.34840536
33	0xbf208d7f	-0.62715906
34	0x3e96b4fb	0.29434952
35	0xbc1cf850	-0.009580687
36	0x3e9ea227	0.30983087
37	0xbeb5506a	-0.35412914
38	0xbf25d57e	-0.6477889
39	0xbe95a7ae	-0.29229492
40	0x3e0eb91d	0.13937803
41	0x3c861995	0.01636962
42	0x3c4c1526	0.012456214
43	0x3c3e56aa	0.011617342
44	0xbe43e5dc	-0.19130653
45	0x3dcd824c	0.10034618
46	0xbc53747e	-0.012906192
47	0xbd0d665a	-0.03452144
48	0x3eaac1e5	0.33351055
49	0x3e7e3a2b	0.24826877
50	0xbee399d7	-0.44453308
51	0x3e6732fb	0.22578041
52	0xbe158047	-0.14599715
53	0x3e218275	0.15772422
54	0xbf02cb87	-0.5109181
55	0xbe8c70ff	-0.2742996
56	0x3cf4f0b1	0.029899927
57	0xbed82ff7	-0.42224094
58	0x3c90dbbe	0.017682906
59	0xbd83e6a6	-0.06440477
60	0xbe2d05fa	-0.16896811
61	0x3f5aa14e	0.8540238
62	0xbe281cf4	-0.16417295
63	0x3dfedf3f	0.124449246
64	0xbdd5dccc	-0.10442504
65	0xbe94bd20	-0.2905054
66	0xbe807dbe	-0.25095934
67	0x3e5d8687	0.2163335
68	0xbe90a0b7	-0.28247616
69	0x3f010a43	0.50406283
70	0xbec639ec	-0.38716066
71	0x3ea8ffca	0.33007652
72	0xbe505531	-0.20344998
73	0xbe6970af	-0.22796892
74	0x3e09147b	0.13386719
75	0xbe8010cc	-0.25012815
76	0x3e5ea352	0.2174199
77	0x3e62bce0	0.22142363
78	0xbdfc4eff	-0.12319755
79	0xbe2ff5f5	-0.17183669
80	0x3e8c32d1	0.2738252
81	0xbe44aff1	-0.19207741
82	0xbb926980	-0.004468143
83	0xbe8771d2	-0.26454026
84	0x3edd46cc	0.43218076
85	0xbef7c0b4	-0.48389208
86	0xbea99098	-0.3311813
87	0x3de08de6	0.10964565
88	0x3dd60b6a	0.10451396
89	0x3e97d1c8	0.29652238
90	0xbda61c4e	-0.081108674
91	0x3e9f8400	0.31155396
92	0x3cdd08b4	0.026981689
93	0xbf1f8ddf	-0.62325853
94	0x3e8157d7	0.2526233
95	0xbe2ae6ba	-0.16689578
96	0xbeae03c8	-0.3398726
97	0x3e83d135	0.2574555
98	0x3eefdf66	0.46850127
99	0x3ed13728	0.40862393
100	0xbe8ad4e9	-0.27115563
101	0xbe7ba008	-0.24572766
102	0x3ccf11fe	0.025277134
103	0x3e80e5b4	0.2517525
104	0xbbde95a9	-0.006792743
105	0xbf13eeb5	-0.57786113
106	0xbecc0c6a	-0.3985322
107	0x3db991e5	0.0906103
108	0xbd1a1b57	-0.03762373
109	0xbe18ed34	-0.14934236
110	0xbf16c413	-0.58892936
111	0xbef6fa2b	-0.48237738
112	0x3eef72cf	0.4676728
113	0x3bebd082	0.007196487
114	0xbefcbf31	-0.49364617
115	0x3e0f7117	0.14007984
116	0xbf177850	-0.5916796
117	0x3c74a9e3	0.014933082
118	0x3e101c03	0.14073186
119	0xbeea6796	-0.45782155
120	0xbe6fb369	-0.23408283
121	0xbdba6eb9	-0.0910315
122	0x3dd89b2c	0.10576472
123	0x3e2417e4	0.16024739
124	0x3a35edf1	0.0006940058
125	0x3eba0efc	0.36339557
126	0x3eeb43bd	0.45950118
127	0x3dddb94b	0.108263575
128	0x3d9d2110	0.07672322
129	0xbf89a05f	-1.0752066
130	0xbe853bd4	-0.26022208
131	0xbe83a0bd	-0.2570857
132	0x3e6ee9f4	0.23331434
133	0xbd97ce69	-0.074124165
134	0x3ec3a4cd	0.3821167
135	0xbf29ad6c	-0.66280246
136	0x3f2c8fcb	0.6740691
137	0xbf11d9f3	-0.5697319
138	0xbdd1df9e	-0.1024773
139	0xbe8bc1c8	-0.2729628
140	0xbeb28550	-0.34867334
141	0xbe064dcd	-0.13115616
142	0xbf1544e3	-0.5830824
143	0x3f4f5176	0.80983675
144	0xbe1fa3e8	-0.15589869
145	0xbda39ea7	-0.07989245
146	0xbf041ee5	-0.5160964
147	0x3eaf2deb	0.3421472
148	0x3e3b5dfe	0.18297574
149	0xbec6c5d8	-0.38822818
150	0xbf2a5e4b	-0.6655013
151	0xbe1f2fb5	-0.15545543
152	0x3f0c6799	0.5484558
153	0x3eb7a2ea	0.3586648
154	0x3dc5cea4	0.09658554
155	0x3dffc457	0.12488621
156	0xbea6bd86	-0.3256647
157	0x3d5985e0	0.05310619
158	0x3e624ce4	0.22099644
159	0xbcc60df8	-0.024176583
160	0xbe1780b9	-0.14795198
161	0x3f25f58a	0.6482779
162	0x3dab3ff9	0.08361811
163	0x3ed9105f	0.42395303
164	0xbea56ec3	-0.32311067
165	0x3c91acbd	0.017782563
166	0x3eec793a	0.4618624
167	0xbe1b49c9	-0.15164866
168	0xbef5d8a5	-0.4801685
169	0x3d5f2937	0.054482665
170	0x3ea2ff4e	0.31835407
171	0x3e28dc3c	0.16490263
172	0x3e2adda5	0.16686113
173	0x3e52fe65	0.20604856
174	0x3dad8d31	0.08474196
175	0xbd128796	-0.035773836
176	0xbe29f83c	-0.165986
177	0x3eaa6bc5	0.33285347
178	0xbed9a794	-0.42510664
179	0xbe71f346	-0.23627958
180	0x3cd25df0	0.025679559
181	0x3ecfaf86	0.405636
182	0x3ba7a512	0.0051161135
183	0x3e0c130d	0.13679142
184	0x3f17fb39	0.5936771
185	0xbe5ecf69	-0.21758808
186	0xbe32fe71	-0.17479874
187	0xbe794938	-0.24344337
188	0xbdc8feb7	-0.09814208
189	0x3e9f4ae3	0.31111822
190	0x3e8d2a4b	0.2757133
191	0xbd87f966	-0.06639366
192	0x3d4857bc	0.048911795
193	0xbddd54fc	-0.10807225
194	0x3eecf770	0.4628253
195	0x3e889346	0.2667486
196	0xbb15ad5e	-0.002283893
197	0xbea30491	-0.3183942
198	0x3ee48a02	0.44636542
199	0x3dbf9cdb	0.0935609
200	0xbf4bae7e	-0.7956313
201	0xbf3c33c1	-0.7351647
202	0xbe9dbca5	-0.30807987
203	0x3de6f688	0.11277491
204	0xbe184909	-0.1487161
205	0xbea10949	-0.31452397
206	0xbe8cb3f3	-0.2748104
207	0xbe1d9a9f	-0.15391015
208	0x3e1281b6	0.14307293
209	0xbd6ba93d	-0.057534445
210	0xbef8da29	-0.48603943
211	0x3f7a74c8	0.97834444
212	0x3cf1b1c1	0.029503705
213	0xbe80208a	-0.25024825
214	0x3ea3e7ce	0.3201279
215	0xbe3abd6d	-0.18236323
216	0x3ebbd434	0.36685336
217	0x3ebdcbd6	0.37069577
218	0x3ea76c68	0.32699895
219	0x3e96b947	0.2943823
220	0x3e02f8c5	0.1279021
221	0x3e8ed319	0.2789543
222	0xbcef286a	-0.029194076
223	0xbeeb2830	-0.45929098
224	0xbea65687	-0.3248789
225	0x3ca7d3fe	0.020486828
226	0xbe551037	-0.20806967
227	0xbe12d15a	-0.14337674
228	0x3d093087	0.033493545
229	0xbeac8066	-0.3369171
230	0x3eef5e59	0.4675167
231	0xbe365370	-0.17805266
232	0xbdf3da37	-0.119068556
233	0xbe5b40b5	-0.21411403
234	0x3e9935bd	0.29923812
235	0xbdc83ab0	-0.09776819
236	0x3e0c66e9	0.13711132
237	0xbd964fe3	-0.07339456
238	0xbf36ab5c	-0.71355224
239	0xbda54e28	-0.08071548
240	0xbdb40ea1	-0.08791853
241	0x3e20070d	0.1562769
242	0xbcf97267	-0.03045006
243	0xbcfc503e	-0.030799981
244	0xbdeaac29	-0.11458618
245	0x3e77e7fc	0.24209589
246	0xbf068f6b	-0.5256259
247	0x3e2e8bf4	0.17045575
248	0x3d58695e	0.05283486
249	0xbc7f475a	-0.015580976
250	0x3e6191ad	0.22028227
251	0xbe60f621	-0.2196889
252	0xbe4715c1	-0.19441892
253	0xbdbae6a3	-0.09126022
254	0x3e099c7e	0.13438603
255	0xbd81afb8	-0.06332344

bias_ih_l1 f4 [128]
0	0x3ea33ebd	0.31883803
1	0xbb29a31e	-0.002588458
2	0xbe289662	-0.16463616
3	0x3c84f50f	0.016230134
4	0x3de60396	0.11231153
5	0xbcdfb4b9	-0.027307855
6	0x3d3ded3e	0.04636883
7	0x3e006947	0.1254016
8	0xbc36ef6e	-0.011165483
9	0xbecb7564	-0.39738
10	0x3f019468	0.50617075
11	0x3e378031	0.17919995
12	0xbc6123a2	-0.013741406
13	0xbd9146fb	-0.070936166
14	0xbe72ee48	-0.2372371
15	0x3cadb98c	0.02120664
16	0x3eb433fa	0.35195905
17	0x3ea25997	0.31708977
18	0xbdc86d51	-0.097864754
19	0x3e84b822	0.25921732
20	0xbd5e1de0	-0.05422771
21	0xbdaaa79a	-0.08332749
22	0xbe6e86fa	-0.23293677
23	0x3e6be9cc	0.23038405
24	0xbe362262	-0.17786554
25	0xbe864fbd	-0.2623271
26	0x3e7e0511	0.2480662
27	0x3e699dc3	0.22814088
28	0x3dd02ad0	0.10164416
29	0x3f3d10fc	0.7385404
30	0x3ee80ea1	0.4532366
31	0x3ea661fc	0.3249663
32	0x3d856524	0.06513432
33	0x3e434cdc	0.19072288
34	0x3cc5fdae	0.024168815
35	0xbe4e6ed6	-0.20159468
36	0x3e76ff92	0.2412093
37	0x3e883bec	0.26608217
38	0xbe61ccad	-0.22050734
39	0x3de9abc7	0.11409717
40	0xbe84cca9	-0.25937393
41	0xbb53f154	-0.0032339888
42	0x3e97c948	0.29645753
43	0xbe9cea55	-0.3064753
44	0x3da8ec58	0.08248204
45	0xbe0cfe94	-0.13768989
46	0x3e293006	0.16522226
47	0xbeb15f68	-0.34643102
48	0x3d928ae9	0.07155401
49	0x3eb09a5e	0.34492773
50	0x3dffd691	0.12492097
51	0x3e901d0c	0.2814716
52	0xbde28f56	-0.110624954
53	0xbe3d4648	-0.18483841
54	0xbe89321a	-0.26796037
55	0x3c85d546	0.016337048
56	0x3cfa5731	0.030559154
57	0xbc5a050d	-0.013306868
58	0x3d2c0b67	0.04200306
59	0x3cc4bb48	0.024015084
60	0xbd443754	-0.047904328
61	0x3e8d1977	0.2755849
62	0xbf0e8645	-0.5567363
63	0x3e67adf9	0.22624959
64	0x3d899398	0.067176044
65	0x3cae5ba0	0.021283925
66	0xbdb349e7	-0.0875433
67	0xbd812bae	-0.06307159
68	0xbe55ca3c	-0.20877928
69	0xbde5bf2e	-0.11218105
70	0x3dee1a8c	0.11626157
71	0x3e587e9e	0.2114205
72	0x3e9b6720	0.30352116
73	0x3e598611	0.21242549
74	0x3e81cefb	0.25353226
75	0x3cfd71f7	0.030938132
76	0xbd3a9f8e	-0.04556232
77	0x3d3d24ec	0.04617779
78	0x3ca9bba2	0.020719353
79	0x3e5c8dcb	0.21538465
80	0xbcb9ae1e	-0.022666033
81	0xbe1c55aa	-0.15267053
82	0x3d3592f5	0.044329602
83	0xbe558e31	-0.20855023
84	0x3e3182d4	0.17335063
85	0xbdcdad63	-0.100428365
86	0xbcdfb1b3	-0.027306413
87	0xbc54263e	-0.012948571
88	0x3e4c521b	0.19953196
89	0x3c5f9b71	0.0136479
90	0xbd559db6	-0.052152358
91	0x3cb98930	0.022648424
92	0x3e0e9574	0.139242
93	0x3d95ed63	0.073206685
94	0x3e2f3d7c	0.17113298
95	0xbe70af34	-0.23504335
96	0x3e72e18c	0.23718852
97	0xbd710add	-0.05884825
98	0xbd77cbdf	-0.06049716
99	0xbc97f1ef	-0.01854798
100	0xbc4d2995	-0.012522121
101	0xbd28a913	-0.041176867
102	0x3e8b50db	0.27210125
103	0xbe5023d0	-0.20326161
104	0x3e1642c3	0.14673905
105	0xbe024275	-0.12720664
106	0x3db95b72	0.09050645
107	0x3e0e31a4	0.13886124
108	0xbb0ef4a7	-0.0021813305
109	0xbd364bf0	-0.044506013
110	0xbea9f81f	-0.33197114
111	0x3dd5cab5	0.10439054
112	0x3eaf9d26	0.34299582
113	0x3d87e326	0.06635122
114	0x3db850ad	0.08999763
115	0x3ea06de8	0.31333852
116	0xbc879866	-0.016552161
117	0xbd196b59	-0.03745589
118	0xbbd1dc85	-0.006404462
119	0xbd59bdf2	-0.05315966
120	0xbe2998a6	-0.16562137
121	0x3d200772	0.0390696
122	0xbe578376	-0.21046242
123	0x3e15986b	0.14608924
124	0xbd7d9403	-0.061908733
125	0x3e6e588b	0.23275964
126	0x3de46018	0.11151141
127	0xbdbb3bbc	-0.09142253

bias_hh_l1 f4 [128]
0	0x3e8ff98a	0.2812007
1	0xbcd46d7d	-0.025931114
2	0xbd772656	-0.060339294
3	0xbe57d512	-0.21077374
4	0x3e584ae2	0.21122316
5	0x3ce1e6e2	0.027575914
6	0xbe35945e	-0.17732379
7	0xbde98b97	-0.11403578
8	0x3d00bd8c	0.031430766
9	0xbd67f8dc	-0.056633815
10	0x3e8c3ce2	0.273902
11	0x3e512a05	0.20426185
12	0x3dcc1e56	0.099667236
13	0x3dd67490	0.10471451
14	0xbe5528b6	-0.20816311
15	0x3eaeb01e	0.34118742
16	0x3f1d92aa	0.61551917
17	0x3eae2c5e	0.34018224
18	0xbe110b4c	-0.14164466
19	0x3ef02102	0.46900183
20	0xbcdb8ae3	-0.026799625
21	0xbe050b35	-0.12992556
22	0x3d0813d1	0.033222023
23	0x3ed9f85d	0.425723
24	0xbc3c9828	-0.011510886
25	0xbe27fb3d	-0.16404434
26	0x3df05826	0.11735563
27	0x3dc11cef	0.09429347
28	0xbdfa064c	-0.12208232
29	0x3f3a4edc	0.7277658
30	0x3e932c06	0.28744525
31	0x3e9cccf0	0.30625105
32	0x3df98408	0.12183386
33	0x3e743350	0.23847699
34	0x3dbe65ab	0.092967354
35	0xbe5167da	-0.20449772
36	0x3e730762	0.23733285
37	0x3ea2a7b0	0.3176856
38	0xbe94a499	-0.29031828
39	0xbd88e726	-0.06684713
40	0x3a706cc5	0.00091714814
41	0x3968928a	0.00022179834
42	0x3e86a188	0.26295114
43	0xbe41ccad	-0.18925734
44	0x3e61b75e	0.22042605
45	0xbed9e302	-0.42556006
46	0x3e663b1b	0.22483484
47	0xbe4b6528	-0.19862807
48	0xbd56fa20	-0.05248463
49	0x3ec09755	0.37615457
50	0xbdc2d32b	-0.09512933
51	0x3eb88341	0.3603764
52	0xbe20e490	-0.1571219
53	0xbe332796	-0.1749557
54	0xbe037320	-0.12836885
55	0x3d6b4b49	0.057444844
56	0xbde3a4f0	-0.11115444
57	0xbe6b3ce7	-0.22972451
58	0x3d49e4d4	0.049290493
59	0xbd40ca62	-0.047068007
60	0xbe17b627	-0.1481558
61	0x3ed47c70	0.41501188
62	0xbece59d4	-0.40302908
63	0x3e0eb1a2	0.13934949
64	0xbe45b6c3	-0.19308
65	0x3bd6a097	0.0065499055
66	0xbdeb01a7	-0.114749245
67	0x3cc5a373	0.02412579
68	0xbe8bf8d5	-0.2733828
69	0x3c1925df	0.009347408
70	0x3e102828	0.14077818
71	0xbcbaac3c	-0.022787206
72	0x3e81f1af	0.25379702
73	0x3e75a74c	0.239896
74	0x3e45c88b	0.19314782
75	0x3d6ba2a9	0.05752817
76	0x3e0375af	0.12837861
77	0xba5f20f4	-0.00085116853
78	0xbe202c30	-0.15641856
79	0x3e2e943a	0.17048731
80	0x3dbcdc08	0.09221655
81	0xbe1ae59b	-0.1512665
82	0x3d863010	0.06552136
83	0xbe26dd37	-0.16295324
84	0xbddc9231	-0.10770071
85	0x3e5e08c8	0.21683037
86	0x3e775aae	0.24155685
87	0xbd4d6425	-0.050144333
88	0x3dd0537e	0.10172175
89	0x3d0b4d8f	0.034009513
90	0xbd647be0	-0.0557822
91	0x3e05a73b	0.13052075
92	0x3dda37ae	0.10655151
93	0xbe055b38	-0.13023078
94	0x3d952934	0.072832495
95	0xbe634d81	-0.22197534
96	0x3e8bdbd9	0.27316168
97	0x3c2d662c	0.010583442
98	0x3ba34294	0.004982302
99	0xbe3f0c4e	-0.18657038
100	0xbd9c34db	-0.07627269
101	0x3d8d8f7a	0.069121316
102	0xbd39a345	-0.04532172
103	0xbea10f88	-0.31457162
104	0x3e0255e0	0.12728071
105	0xbed2f7e1	-0.41204742
106	0x3eac545f	0.3365812
107	0x3e4ea156	0.20178732
108	0x3dc2e148	0.09515625
109	0x3d3d47f7	0.04621121
110	0xbe9f8e3c	-0.31163204
111	0x3e5af634	0.21382982
112	0x3ee1c99c	0.44099128
113	0x3e53bbe9	0.20677151
114	0x3d89fa18	0.06737155
115	0x3e969b07	0.2941515
116	0x3cda6cf0	0.026663274
117	0x3d295f93	0.041350912
118	0x3de6a29b	0.11261483
119	0x3d3a39e7	0.045465376
120	0xbdb1a545	-0.08674101
121	0xbe321b5e	-0.17393252
122	0xbe438ae5	-0.19095953
123	0x3e5feee2	0.2186847
124	0xbd921010	-0.0713197
125	0x3e3d0c5b	0.18461744
126	0x3e146688	0.14492238
127	0x3db708b3	0.08937206

weight f4 [1, 32]
0	0xbe3a4748	-0.18191254
1	0xbd7bd21c	-0.061479673
2	0xbb9d9d7c	-0.0048100334
3	0xbdd51e12	-0.10406126
4	0xbda75df5	-0.08172218
5	0x3de7ac1b	0.113121234
6	0xbac9d616	-0.0015398886
7	0xbbeeafb0	-0.007284127
8	0x3f1e7dfc	0.61910987
9	0x3dfd896f	0.12379729
10	0x3ed28968	0.41120458
11	0xbda87390	-0.08225167
12	0x3e7d723a	0.24750605
13	0x3e7757e5	0.24154623
14	0x3e209840	0.15683079
15	0x3e2486d3	0.16067056
16	0xbe576215	-0.21033509
17	0xbdf9a096	-0.121888325
18	0x3e6078f3	0.21921138
19	0xbe6f481e	-0.23367354
20	0x3e11f529	0.14253677
21	0x3ce13958	0.027493164
22	0xbeaeec95	-0.34164873
23	0x3ec1dc61	0.37863448
24	0xbddc970b	-0.10770997
25	0xbe496a4d	-0.19669457
26	0x3e699f22	0.2281461
27	0x3e381398	0.17976224
28	0x3e0823ab	0.13294856
29	0x3ea3d7fe	0.32000726
30	0xbd04b410	-0.032398283
31	0xbda4e2f2	-0.08051099
